results/checkpoint_episode_50.pth (torch, 292189 bytes, 24 tensors)

layer1.weight f4 [128, 4]
0	0xb8acce69	-8.240046e-05
1	0x3e933485	0.28751007
2	0xbed1dd10	-0.4098897
3	0xbec83cdd	-0.39108935
4	0xbe53531a	-0.2063717
5	0x3e0f9a20	0.14023638
6	0x3cc46de8	0.023978189
7	0x3ecd4d07	0.4009783
8	0xbd7780de	-0.06042563
9	0x3d7c5686	0.061605953
10	0xbe01b10b	-0.12665193
11	0xbcdc42c0	-0.026887298
12	0xbee8ea86	-0.45491427
13	0xbeaf1b87	-0.3420069
14	0xbe6db9c5	-0.23215397
15	0x3c83e181	0.01609874
16	0x3e5dbac6	0.2165328
17	0x3ea6b45a	0.32559472
18	0xbeafb67b	-0.3431891
19	0xbe78d68c	-0.24300593
20	0x3e6448ea	0.2229344
21	0x3edca25d	0.43092623
22	0xbdcc6ae5	-0.09981326
23	0x3ec2c6ef	0.380424
24	0xbdac1e7b	-0.08404251
25	0x3d2edf65	0.042693514
26	0x3ef35889	0.47528484
27	0xbedb14e0	-0.42789364
28	0xbe9e828c	-0.30958974
29	0xbe1aa685	-0.15102585
30	0xbe46bf26	-0.19408855
31	0x3ee71e71	0.45140412
32	0xbe9c5869	-0.30536202
33	0xbe6bf517	-0.23042713
34	0xbea2c4ae	-0.3179068
35	0xbeef7a02	-0.46772772
36	0xbe893b61	-0.26803115
37	0x3ee9cdd5	0.4566485
38	0x3e787fbb	0.24267475
39	0x3e5f8d63	0.21831279
40	0x3c8ce86a	0.017200667
41	0xbe9190a1	-0.28430656
42	0x3e066de8	0.13127863
43	0xbed9051d	-0.42386714
44	0xbec555a9	-0.38541916
45	0xbe887a64	-0.26655877
46	0x3eb9bdcf	0.36277625
47	0x3e9f3886	0.3109781
48	0xbe722ec0	-0.23650646
49	0xbcf0f088	-0.02941157
50	0x3eb782d6	0.35842007
51	0x3f042716	0.5162214
52	0x3e4c0cf1	0.19926812
53	0x3d8ee226	0.06976728
54	0x3e9eaf30	0.30993032
55	0xbe9d1c3e	-0.3068561
56	0x3df7c27a	0.1209764
57	0xbecb21c5	-0.39674202
58	0xbeb7e2aa	-0.35915118
59	0xbe7a16eb	-0.24422805
60	0x3e5f8810	0.21829247
61	0x3e468481	0.19386484
62	0xbe935176	-0.28773087
63	0x3e21db30	0.1580627
64	0x3e8da45c	0.2766446
65	0xbdbf0522	-0.09327151
66	0x3ce064e7	0.027391864
67	0x3e0ebe3b	0.13939755
68	0x3ea5129b	0.32240757
69	0x3efd9ee3	0.49535283
70	0xbec4c682	-0.384327
71	0xbe48de0b	-0.19615953
72	0x3e5314e3	0.20613436
73	0x3ecefcbb	0.40427193
74	0x3ed2dcba	0.41184026
75	0x3edd9331	0.4327636
76	0x3df30989	0.11867053
77	0xbee9ca46	-0.45662135
78	0x3d32c8db	0.043648582
79	0xbe9a208a	-0.3010295
80	0xbeeda062	-0.46411425
81	0x3ee9f7ac	0.4569677
82	0x3ebdd943	0.3707982
83	0xbf04c416	-0.51861703
84	0x3de1fd73	0.1103467
85	0xbd89f461	-0.06736065
86	0xbdcb6160	-0.09930682
87	0xbe7b8242	-0.24561408
88	0x3e251001	0.16119386
89	0xbe9de9c9	-0.30842426
90	0x3e6c2c2d	0.23063727
91	0x3e8a92ae	0.27065033
92	0x3eb4d1c1	0.3531628
93	0x3e3f2869	0.18667759
94	0xbefb39c0	-0.49067497
95	0xbea8074b	-0.32818064
96	0x3e73f202	0.23822787
97	0x3db3908e	0.08767806
98	0xbecc7121	-0.3993006
99	0xbe8ad7f7	-0.27117893
100	0x3eef1720	0.4669733
101	0x3ea4f5ba	0.32218724
102	0xbe674ebe	-0.22588632
103	0xbdde44a4	-0.10852936
104	0xbef15670	-0.4713626
105	0x3be218bd	0.0068999217
106	0xbec721b6	-0.38892907
107	0xbed033ed	-0.40664616
108	0xbc255eab	-0.010093371
109	0x3d650e97	0.055922117
110	0xbe616a9e	-0.22013327
111	0x3e9c2707	0.30498526
112	0xbe9ab280	-0.3021431
113	0x3ef03f54	0.46923316
114	0x3ebaa8f9	0.3645704
115	0xbee16467	-0.44021913
116	0xbdb35a0d	-0.0875741
117	0x3d119178	0.03553912
118	0x3d343e95	0.044004995
119	0x3dcd22d0	0.100164056
120	0x3e55d16d	0.20880671
121	0x3d35a62d	0.04434793
122	0xbe765c42	-0.24058631
123	0x3e6775c1	0.22603513
124	0xbefa44a2	-0.48880488
125	0xbe9c313f	-0.30506322
126	0xbe244f1a	-0.160458
127	0xbe8ffb80	-0.28121567
128	0xbe2a8ed6	-0.1665605
129	0xbede2dc3	-0.43394288
130	0xbdf8ecfe	-0.12154578
131	0x3df01ec6	0.117246196
132	0xbe943581	-0.2894707
133	0xbc97470c	-0.018466495
134	0x3ea16edd	0.31529894
135	0xbd8a80fe	-0.067628846
136	0xbcb92934	-0.022602655
137	0xbd7f563b	-0.062338095
138	0x3e2bb697	0.16768871
139	0x3eb28b68	0.34871984
140	0x3eec462f	0.46147296
141	0x3e9ed99f	0.31025407
142	0x3ef90edb	0.48644146
143	0xbcec7f88	-0.028869405
144	0xbef871c6	-0.48524302
145	0xbe821193	-0.25404033
146	0x3ec5f74d	0.38665238
147	0x3c8bb8bf	0.017055867
148	0xbe60807d	-0.21924014
149	0xbec85846	-0.39129847
150	0xbf00affe	-0.5026854
151	0xbed999d3	-0.4250017
152	0xbda402db	-0.08008357
153	0x3e975f38	0.29564834
154	0x3e86058c	0.26176107
155	0xbf01565d	-0.50522405
156	0x3e9f90db	0.31165203
157	0xbec82d85	-0.3909723
158	0xbdd85412	-0.1056291
159	0xbe4f723e	-0.20258424
160	0xbdd38e04	-0.10329822
161	0xbe2ac49c	-0.16676563
162	0xbed4cc00	-0.4156189
163	0xbeb1c5be	-0.34721178
164	0xbe18d454	-0.14924747
165	0xbd32fd73	-0.04369874
166	0xbe10b88a	-0.14132896
167	0x3e7be2d7	0.24598251
168	0xbee21651	-0.4415765
169	0xbd8011db	-0.06253406
170	0x3ee29c13	0.442597
171	0xbe2de1de	-0.16980693
172	0x3ef3937f	0.47573468
173	0x3e264e45	0.16240795
174	0xbeef92c8	-0.46791673
175	0x3ea7f945	0.32807365
176	0xbd831da9	-0.064021416
177	0xbe5d0cfc	-0.21586984
178	0x3ebade5e	0.36497778
179	0xbed9b078	-0.42517447
180	0x3d113189	0.03544763
181	0xbdd4a179	-0.10382361
182	0x3ec3dd73	0.3825489
183	0x3e13bd97	0.14427792
184	0x3e66cccb	0.2253906
185	0x3dd12f66	0.10214119
186	0xbdeed23e	-0.11661194
187	0xbd4eb5eb	-0.05046646
188	0xbecdaea2	-0.40172297
189	0x3e831948	0.25605226
190	0x3eccc67b	0.3999518
191	0x3eb60fd7	0.3555896
192	0xbea1875e	-0.3154859
193	0x3d8270fa	0.06369205
194	0xbece3975	-0.4027821
195	0xbea408bf	-0.32037923
196	0xbe8b0444	-0.27151692
197	0x3e43838b	0.19093148
198	0xbea37360	-0.31923962
199	0xbd00de7d	-0.03146218
200	0x3d0d870c	0.03455262
201	0x3eb1c7e4	0.34722817
202	0xbec21025	-0.37902942
203	0xbebd441a	-0.3696602
204	0xbe85a952	-0.26105744
205	0x3eb142b5	0.34621206
206	0xbe4f0084	-0.2021504
207	0x3ed68860	0.4190092
208	0x3e310453	0.17286806
209	0x3d6320c7	0.05545118
210	0x3b85eb77	0.0040869075
211	0xbdba4741	-0.09095622
212	0x3dc25417	0.09488695
213	0xbdeeac6f	-0.11653983
214	0xbceb54c3	-0.028726941
215	0x3d6d6b42	0.057963617
216	0xbecd10f8	-0.4005201
217	0xbe8db170	-0.27674437
218	0x3ec5bd63	0.38621053
219	0xbed69f4e	-0.41918415
220	0xbca2677e	-0.01982474
221	0x3f03c96a	0.5147921
222	0x3e637b66	0.22215042
223	0xbb22812e	-0.0024796235
224	0xbede9f1f	-0.43480775
225	0x3e3a6c7c	0.18205446
226	0xbeaeadf1	-0.34117082
227	0xbda83545	-0.08213285
228	0xbe1844ba	-0.14869967
229	0xbdb9aacf	-0.09065782
230	0xbb574d0a	-0.0032852315
231	0x3ed92de4	0.42417824
232	0x3d511828	0.051048428
233	0x3edbf3ea	0.4295953
234	0x3e9af62f	0.30265948
235	0xbea07f3b	-0.3134707
236	0x3e8152aa	0.2525838
237	0xbebbb6af	-0.36662814
238	0xbe7a61ed	-0.24451418
239	0x3e107ba9	0.14109673
240	0x3e3ccb42	0.18436912
241	0x3ece16f7	0.40251896
242	0xbe0d896f	-0.13821958
243	0xbcbd9200	-0.023140907
244	0x3e83b1d9	0.25721624
245	0xbef765ca	-0.48319846
246	0x3eb8f316	0.3612296
247	0xbed38952	-0.41315705
248	0x3c9ad205	0.018898973
249	0xbde3eb2b	-0.11128839
250	0xbe95aaa7	-0.2923176
251	0x3da56d4a	0.08077486
252	0x3ede67d5	0.43438593
253	0xbe27e545	-0.16396053
254	0xbe99cd7b	-0.30039582
255	0xbe2fbf0b	-0.17162721

layer1.bias f4 [128]
0	0xbdde546c	-0.10855946
1	0xbe48d090	-0.1961081
2	0x3e4ca8a3	0.19986205
3	0x3e721ff4	0.23645002
4	0xbe58753f	-0.21138476
5	0x3dd37596	0.10325162
6	0x3eab9951	0.3351541
7	0xbc017433	-0.007901239
8	0x3e590502	0.21193317
9	0xbdc9a2aa	-0.09845479
10	0x3e71244f	0.23549007
11	0xbebc50c5	-0.36780372
12	0xbe8e6e8e	-0.27818722
13	0xbe8193e9	-0.2530816
14	0x3f023a4c	0.50870204
15	0xbe11545e	-0.1419234
16	0x3d3adfb1	0.045623485
17	0xbe5f361d	-0.21797986
18	0x3f042733	0.51622313
19	0x3f077dc2	0.52926266
20	0xbeb4d836	-0.35321206
21	0xbec6bc85	-0.38815704
22	0xbec3f6e3	-0.38274297
23	0x3c90271d	0.017596776
24	0xbe0c45e9	-0.13698544
25	0xbead4726	-0.33843344
26	0xbe11402f	-0.1418464
27	0x3e1dd445	0.15413006
28	0xbe727510	-0.23677468
29	0x3ddfe716	0.10932748
30	0xbe05734f	-0.13032268
31	0xbe543025	-0.2072149
32	0x3df36295	0.118840374
33	0x3ef59b58	0.4797008
34	0xbeaccf1b	-0.3375176
35	0x3d110354	0.035403565
36	0xbe2e8f48	-0.17046845
37	0x3f0c8926	0.5489677
38	0xbee4b380	-0.44668198
39	0xbef53d42	-0.47898299
40	0x3f0e72dd	0.5564402
41	0xbe8e492c	-0.277902
42	0x3e1cd747	0.15316497
43	0xbb017913	-0.0019756004
44	0xbd876391	-0.06610788
45	0xbde09398	-0.10965651
46	0x3ec18ef0	0.37804365
47	0x3d8a1b1e	0.067434534
48	0xbee3c385	-0.44485107
49	0xbe8d0b97	-0.27547905
50	0xbe08d506	-0.13362512
51	0x3ea2abf6	0.3177182
52	0xbea98b69	-0.33114174
53	0x3f0466e8	0.5171952
54	0xbd8c78ab	-0.06858953
55	0xbd76d6a3	-0.060263287
56	0x3ee14d2c	0.4400419
57	0x3e9b1f15	0.3029715
58	0x3edfcd0f	0.43711135
59	0x3eacc6e0	0.3374548
60	0xbddfc8ec	-0.10926995
61	0xbea9ba01	-0.33149722
62	0x3c4cd6ad	0.012502355
63	0x3eea7e26	0.4579937
64	0xbdfdd63a	-0.12394376
65	0xbed6d291	-0.41957524
66	0x3e7fd40a	0.2498323
67	0x3f0d0111	0.5507975
68	0xbdf6a063	-0.1204231
69	0xbed84651	-0.42241147
70	0xbee95ee4	-0.45580208
71	0x3e371ffe	0.17883298
72	0xbc6cea37	-0.014460138
73	0xbe80bdea	-0.25144893
74	0x3e20cd06	0.1570321
75	0x3e7758f9	0.24155034
76	0x3ee46262	0.4460631
77	0x3edc2ba1	0.43002036
78	0xbd1443f7	-0.03619763
79	0xbee190c7	-0.4405577
80	0xbee72921	-0.45148566
81	0x3f03551e	0.51301754
82	0x3e977bf6	0.29586762
83	0x3e8afa7a	0.27144223
84	0xbedd5469	-0.43228462
85	0x3f039e84	0.5141375
86	0x3f06ca33	0.5265228
87	0x3f01f2b3	0.50760955
88	0xbed7cd52	-0.42148834
89	0xbe410b83	-0.18852048
90	0xbeaab1cc	-0.33338773
91	0x3f04426c	0.5166385
92	0xbe490588	-0.19631016
93	0xbe458442	-0.19288734
94	0x3e9efefe	0.3105392
95	0xbe797573	-0.2436121
96	0xbe629a9c	-0.22129291
97	0xbb25c2fa	-0.0025293217
98	0xbc6d16ba	-0.0144707505
99	0xbec885b3	-0.39164504
100	0x3ef2b62e	0.47404617
101	0xbe6ed3d8	-0.23323
102	0x3e6b9729	0.23006882
103	0x3ef817cd	0.4845566
104	0x3e9c1840	0.3048725
105	0x3d86df67	0.06585579
106	0x3ef98659	0.48735312
107	0x3e003090	0.12518525
108	0xbe6c47cc	-0.23074263
109	0x3f052c41	0.5202065
110	0x3e0b87ab	0.13625972
111	0xbef995cf	-0.48747107
112	0xbde59551	-0.112101205
113	0xbe9f16b5	-0.31072012
114	0x3ef6f1dd	0.48231402
115	0xbc7114ef	-0.014714464
116	0xbee2d776	-0.4430501
117	0x3c368e50	0.011142328
118	0x3ebf96ae	0.37419647
119	0x3e303296	0.17206797
120	0x3e4bc6bf	0.19900034
121	0x3dcc98d5	0.09990088
122	0x3e7676d9	0.24068774
123	0xbdb0cf6c	-0.086333126
124	0xbe356a1e	-0.17716262
125	0xbeef1b7e	-0.46700662
126	0xbec2e575	-0.38065687
127	0x3e81b415	0.25332704

layer2.weight f4 [128, 128]
0	0xbd4788ee	-0.04871457
1	0x3b178f32	0.0023126123
2	0x3d78310d	0.060593653
3	0x3d1f9aab	0.038965862
4	0xbd7064ad	-0.058689762
5	0x3de3feea	0.111326054
6	0xbcca723b	-0.024712672
7	0x3dbf1e61	0.09331966
8	0xbd23109f	-0.039810773
9	0xbc88c661	-0.016696157
10	0x3da32b00	0.07967186
11	0xbd5503ed	-0.052005697
12	0x3d90703d	0.07052658
13	0xbd8b4397	-0.06800001
14	0xbd23bd19	-0.03997526
15	0xbd014f3d	-0.03156971
16	0x3d4af290	0.049547732
17	0x3daa3412	0.08310713
18	0xbc6b6b26	-0.014368808
19	0x3d846143	0.06463864
20	0xbcdcd509	-0.026957052
21	0xbd2ed49e	-0.042683236
22	0x3d33c97e	0.04389333
23	0xbd682218	-0.05667314
24	0x3c1dd279	0.0096327
25	0x3daa3c59	0.08312292
26	0xbca2d958	-0.019879028
27	0x3dca58c5	0.09880213
28	0xbcd8c5a9	-0.02646144
29	0x3dc796b8	0.09745544
30	0xbda8bde2	-0.08239342
31	0xbc95f3a8	-0.01830466
32	0x3c70de60	0.014701456
33	0x3d706970	0.058694303
34	0xbaa366a1	-0.0012466499
35	0x3da9fce6	0.0830019
36	0xbcecf07a	-0.028923262
37	0x3cfbb812	0.03072742
38	0x3d5264aa	0.051365532
39	0xbcc3c572	-0.02389786
40	0x3ddeb0bb	0.108735524
41	0xbddfcf47	-0.10928207
42	0x3c95147d	0.018198246
43	0x3ce525aa	0.027972061
44	0x3d0661f3	0.032808255
45	0x3d6efd3e	0.05834698
46	0x3c88ef9a	0.016715813
47	0xbd6239d4	-0.05523093
48	0xbbbf399d	-0.0058357255
49	0x3b54b35a	0.0032455535
50	0x3d1e5756	0.03865751
51	0xbcd25d7f	-0.025679348
52	0x3d4fc367	0.05072346
53	0x3deb92c7	0.11502605
54	0x3c0a30c4	0.008434478
55	0xbd94c50b	-0.072641455
56	0x3dba4c22	0.090965524
57	0xbd175901	-0.036950115
58	0x3d3756a8	0.044760376
59	0x3d3d886c	0.04627268
60	0xbd1b7aac	-0.037958786
61	0x3cfbee71	0.030753346
62	0xbd2717ce	-0.040794186
63	0x3d5c1010	0.053726256
64	0xbd68bbbb	-0.05681966
65	0xbda72c30	-0.08162725
66	0x3d367b32	0.044551082
67	0x3dd873e4	0.105689794
68	0xbd2a6057	-0.041595783
69	0x3c40a857	0.011758885
70	0xbcb98304	-0.02264548
71	0xbc7be178	-0.01537358
72	0xbd5c2e00	-0.053754807
73	0xbdc0d47a	-0.09415527
74	0x3e0325c0	0.12807369
75	0x3c2204f0	0.0098888725
76	0x3d11e738	0.035620898
77	0x3d6995d5	0.057027657
78	0x3da5805e	0.08081125
79	0x3d9a6253	0.07538285
80	0x3d92b2d4	0.07163015
81	0xbd175cf7	-0.036953893
82	0x3c964465	0.01834316
83	0xbcadb936	-0.02120648
84	0xbd4eb219	-0.050462816
85	0x3d4f206d	0.050568033
86	0x3de34c69	0.110985585
87	0xbd26f0c2	-0.04075695
88	0x3d5af0c9	0.053452287
89	0xbd3b924f	-0.045793828
90	0xbc184c13	-0.009295481
91	0x3dc2a65a	0.09504385
92	0xbc8894a9	-0.01667245
93	0xba551b6c	-0.00081293914
94	0xbd0ac43d	-0.033878554
95	0x3da775c3	0.08176758
96	0xbc19336b	-0.009350638
97	0xbd5b37d6	-0.053520046
98	0x3d47cf80	0.04878187
99	0xbdc4c2ac	-0.09607443
100	0xbd1ff881	-0.03905535
101	0x3c62c2ea	0.013840416
102	0x3dc7b7fe	0.097518906
103	0x3bf85c18	0.007579338
104	0x3d8ece74	0.069729716
105	0x3dd0203e	0.101624
106	0x3dbf7812	0.093490735
107	0xbc570748	-0.013124295
108	0xbc7295c0	-0.014806211
109	0x3ba1b623	0.0049350425
110	0xbd391001	-0.04518128
111	0x381910d6	3.6493722e-05
112	0x3da9d4f1	0.082925685
113	0x3cdcb741	0.026942851
114	0x3d1ae9b2	0.037820525
115	0x3d052bd7	0.032512512
116	0xbd3d2df5	-0.046186406
117	0x3db0f4df	0.086404555
118	0xbc051a55	-0.008123954
119	0xbd079fe8	-0.033111483
120	0x3d32e79f	0.043677922
121	0x3d9b5692	0.07584871
122	0xbd3c12ef	-0.045916494
123	0x3dba9bb7	0.091117315
124	0x3d2a839c	0.04162942
125	0xbd7d75b6	-0.061879836
126	0xbd5a7a90	-0.05333954
127	0x3dd8be17	0.10583132
128	0xbd94ab45	-0.072592296
129	0xbcd379bf	-0.025814889
130	0x3cb5de7a	0.022200812
131	0xbdb16bd3	-0.08663144
132	0x3d3665d9	0.044530723
133	0x3d21b412	0.03947837
134	0x3d451031	0.048111144
135	0xbd66a65d	-0.056311
136	0x3da603d9	0.08106203
137	0xbd802d94	-0.06258693
138	0x3da68196	0.08130185
139	0xbdad96cb	-0.08476027
140	0xbda12912	-0.07869162
141	0x3d5715a8	0.052510887
142	0x3af9a74c	0.0019047051
143	0xbaeac902	-0.0017912688
144	0xbd5c9345	-0.053851385
145	0xbd2bfb87	-0.041987922
146	0xbd059823	-0.032615792
147	0xbdbf24b1	-0.0933317
148	0x3adb3a22	0.0016725699
149	0x3d1c23f9	0.038120244
150	0xb89cd280	-7.477868e-05
151	0x3cb96ac5	0.02263392
152	0x3da226a2	0.07917525
153	0x3c9d83ce	0.019227888
154	0xbd065f51	-0.032805745
155	0xbd235db0	-0.03988427
156	0xbd798e8b	-0.060926955
157	0xbd8897a5	-0.06669549
158	0xbc690ee8	-0.014224745
159	0xbd3813a9	-0.044940624
160	0x3d06854e	0.032841973
161	0xbd37c057	-0.044861164
162	0x3d9032b3	0.0704092
163	0xbd8bbbb9	-0.06822915
164	0x39839c0d	0.00025102534
165	0x3d9417fb	0.072311364
166	0x3db26caf	0.08712136
167	0xbd518f42	-0.051162012
168	0x3c106c4c	0.0088148825
169	0x3c2af005	0.010433202
170	0xbd4851cc	-0.048906133
171	0xbd18c864	-0.037300482
172	0x3cc797e5	0.024364421
173	0xbd7b8f5b	-0.06141601
174	0x3c00dd01	0.007865191
175	0x3d0dc0dc	0.034607753
176	0x3c90fe75	0.01769946
177	0x3dc58711	0.096449025
178	0xbc2fcad2	-0.0107295085
179	0x3d0a4773	0.033759546
180	0x3dbf8d71	0.0935315
181	0xbd0c1ec8	-0.034209043
182	0x3d315bd1	0.043300454
183	0xbcfdef5d	-0.030997926
184	0xbca171af	-0.019707529
185	0xbc9ce509	-0.019152181
186	0xbbe6d8d1	-0.0070448895
187	0xbd2303b5	-0.039798457
188	0x3c7e183a	0.015508706
189	0x3b5a1cc5	0.0033281308
190	0x3d655365	0.055987734
191	0xbccb509e	-0.024818715
192	0x3ba720ba	0.005100337
193	0xbd069324	-0.032855168
194	0xbda417e5	-0.0801237
195	0x3ced86ed	0.028995002
196	0x3bdfd606	0.0068309335
197	0xbd10e11e	-0.03537094
198	0xbcf4a2db	-0.029862812
199	0x3c87ca57	0.016575975
200	0xbc82d347	-0.015969886
201	0x3d781ae8	0.060572535
202	0xbbba937d	-0.0056938515
203	0x3cd5396b	0.026028356
204	0x3d0471a0	0.032334924
205	0xbceae524	-0.028673716
206	0x3d1c87ba	0.038215376
207	0x3d857ae6	0.06517582
208	0x3b852eed	0.004064432
209	0x3c2e590c	0.010641348
210	0xbb718060	-0.00368502
211	0x3d5ef222	0.054430135
212	0xbd18bd63	-0.03728999
213	0xbd59908a	-0.05311636
214	0x3d019bc3	0.031642687
215	0xbdabcb9f	-0.08388447
216	0x3ab99b39	0.001416064
217	0xbd266041	-0.04061914
218	0x3d6ec79a	0.058295824
219	0xbdb5be30	-0.08874166
220	0x3d5b5956	0.053551994
221	0x3dbeac0b	0.09310158
222	0x3c342772	0.010995733
223	0xbbc0d3ab	-0.005884608
224	0x3d9b89b8	0.07594627
225	0xbd31c844	-0.04340388
226	0xbbe7ecba	-0.0070777806
227	0xbd1e6a8a	-0.038675822
228	0xbc948fe5	-0.01813502
229	0x3c9d424a	0.019196648
230	0x3baa3cd0	0.0051952377
231	0xbcc06553	-0.023485815
232	0xbdbc906e	-0.09207235
233	0x3b2eecf7	0.0026691535
234	0xbc22d276	-0.009937873
235	0x3bef763c	0.007307796
236	0x3d873e39	0.06603665
237	0x3da15c37	0.07878917
238	0xbd6614fa	-0.05617235
239	0xbbb476db	-0.0055073327
240	0xbd10f2b7	-0.03538772
241	0xbda6b69c	-0.08140299
242	0xbd916e47	-0.07101112
243	0x3da3bbff	0.07994842
244	0x3d4f6e4c	0.050642297
245	0x3d3ce8b8	0.046120375
246	0x3d2d8d6e	0.042371206
247	0xbd9d3619	-0.07676334
248	0x3b8d244e	0.0043073064
249	0x3d9af1f4	0.0756568
250	0xbd6834cf	-0.056690987
251	0x3da0e952	0.07857002
252	0x3cbe2bb8	0.023214206
253	0x3d7e8557	0.06213888
254	0xbd1afb4e	-0.03783732
255	0x3d0f22e0	0.03494537

layer2.bias f4 [128]
0	0x3ca5f46e	0.020258155
1	0x3d9d963a	0.07694669
2	0xbc5e93c0	-0.013585031
3	0x3c487781	0.012235523
4	0x3ba9cd62	0.0051819542
5	0xbdb06c93	-0.08614459
6	0x3d43d3d4	0.047809437
7	0x3dc5d994	0.0966064
8	0x3dc10d76	0.094263956
9	0x3dc4504f	0.0958563
10	0x3da77cb5	0.08178083
11	0xbd633bf7	-0.05547711
12	0x3db9bd8c	0.09069356
13	0xbd080684	-0.03320934
14	0x3cc7dc35	0.024396995
15	0xbdb18f92	-0.08669962
16	0x3cbf30f5	0.023338774
17	0xbd68638d	-0.056735564
18	0xbd4433db	-0.047901016
19	0x3bbc3144	0.0057431776
20	0xbc3a81b3	-0.011383462
21	0xbb7a6b03	-0.0038210757
22	0xbd623cbd	-0.055233706
23	0xbda79baa	-0.081839874
24	0x3dc005f1	0.09376133
25	0x3d72acbc	0.059246764
26	0x3d80703d	0.06271408
27	0x3d3f8854	0.046760872
28	0x3c802305	0.015641699
29	0xbd8dedb5	-0.06930105
30	0x3cd3e073	0.025863862
31	0x3d92d0ee	0.071687564
32	0xbb7ebfcb	-0.0038871642
33	0xbb94bccd	-0.0045391084
34	0x3c9384f5	0.018007735
35	0x3dbcb655	0.092144646
36	0xbcf52cad	-0.02992853
37	0x3c0a2cde	0.008433549
38	0xbb133f00	-0.002246797
39	0x3d0fee0d	0.035139132
40	0xbc934f4d	-0.01798215
41	0x3bda796a	0.0066673057
42	0xbcf9d10d	-0.030495191
43	0xbc278598	-0.010224722
44	0x3d0b0ab7	0.033945765
45	0x3d4078de	0.046990268
46	0xbca3668d	-0.019946361
47	0xbc348054	-0.011016924
48	0xbdafea06	-0.08589558
49	0xbbf418e1	-0.007449255
50	0x3d7dc2e1	0.06195343
51	0xb9ec1d90	-0.00045035454
52	0x3c0cf06e	0.008602245
53	0x3dc61441	0.09671832
54	0x3d92c0db	0.071656905
55	0xbd6e4152	-0.058167763
56	0xbcd6382c	-0.026149832
57	0x3dab265b	0.08356925
58	0xbd3c1402	-0.04591752
59	0x3d729264	0.05922164
60	0xbdb378c1	-0.08763266
61	0x3cda54e4	0.026651807
62	0x3cc9bef3	0.024627184
63	0xbcd23366	-0.025659274
64	0xbd3400a6	-0.04394593
65	0x3d8770dc	0.06613323
66	0xbd0c3928	-0.034234196
67	0xba048d65	-0.000505647
68	0xbc5fcc2d	-0.013659519
69	0x3d83b988	0.06431872
70	0x3d4fcdfd	0.050733555
71	0xbc659a18	-0.01401379
72	0x3d6a6583	0.057225715
73	0x3d74da55	0.05977853
74	0xbd2585c6	-0.04041078
75	0x3d569f06	0.05239775
76	0x3cf5e663	0.030017084
77	0x3d9b1eb5	0.07574216
78	0x3d317f70	0.043334424
79	0xbd57e0aa	-0.05270449
80	0x3d0b6b8a	0.034038104
81	0x3da1f7fb	0.07908627
82	0xbcae66f1	-0.02128932
83	0xbd45e3f2	-0.04831309
84	0x3c8a2e97	0.016867919
85	0x3cf28f66	0.029609393
86	0xbd28049f	-0.041020032
87	0xbc5b423f	-0.0133824935
88	0x3c154145	0.0091098
89	0xbd1c6075	-0.038177926
90	0xbda9e997	-0.08296507
91	0xbcd05051	-0.025428923
92	0xbd110f72	-0.03541512
93	0x3d7b1e97	0.06130847
94	0xbdb4dafa	-0.08830829
95	0x3c1443b6	0.009049347
96	0xbc50afa7	-0.012737191
97	0x3d581361	0.052752856
98	0xbc0ab9ba	-0.008467132
99	0x3daf6584	0.085642844
100	0x3d280639	0.04102156
101	0x3cce857d	0.025210137
102	0xbdb22c64	-0.08699873
103	0xbcec2e4f	-0.028830675
104	0xbca95cea	-0.020674188
105	0x3d2c6824	0.042091504
106	0xbd595f62	-0.05306948
107	0x3d86d5b2	0.06583728
108	0xbd9acd23	-0.07558658
109	0x3db10127	0.08642798
110	0x3a6747ab	0.000882263
111	0xbd9f73ed	-0.07785783
112	0x3d180338	0.037112445
113	0xbdbc4b9a	-0.09194107
114	0x3cad2022	0.021133486
115	0x3d958079	0.07299895
116	0xbc3c8fbe	-0.01150888
117	0xbbff3e7b	-0.0077894307
118	0x3dbd2b11	0.0923673
119	0x3d815b8c	0.06316289
120	0xba40f4b6	-0.00073606835
121	0x3d987887	0.07444864
122	0xbdae99ee	-0.085254535
123	0xbd2dbedd	-0.04241835
124	0x3d7334f7	0.059376683
125	0xbabbc050	-0.0014324281
126	0xbd17e680	-0.037085056
127	0xbc948488	-0.018129602

layer3.weight f4 [2, 128]
0	0x3dce7fa9	0.10082943
1	0xbcc6850e	-0.024233367
2	0x3d09aa4c	0.033609673
3	0x3d75ace7	0.059979346
4	0xbd4450f8	-0.04792878
5	0xbd9d22c2	-0.07672645
6	0xbdb2266c	-0.08698735
7	0x3d5079df	0.050897475
8	0x3d607ffd	0.05480956
9	0x3dcb56b9	0.099286504
10	0x3dbe5887	0.09294229
11	0x3daef97c	0.08543679
12	0x3d9fba9f	0.07799267
13	0x3d2f3c34	0.042782024
14	0x3d9d7593	0.07688441
15	0xbd0398a4	-0.03212799
16	0x3db9734e	0.09055196
17	0xbd707831	-0.058708373
18	0x3c896109	0.016769903
19	0x3e0bdbf0	0.13658118
20	0xbda262cf	-0.079290025
21	0x3deeb012	0.116546765
22	0x3c81a442	0.015825395
23	0xbccdb029	-0.025108414
24	0x3c405fd3	0.011741596
25	0xbd41eb49	-0.047343526
26	0x3deba8d9	0.115068145
27	0xbc035ad3	-0.00801726
28	0x3cc09729	0.023509579
29	0xbd9bd0c8	-0.07608181
30	0x3d4eb203	0.050462734
31	0x3de97208	0.11398703
32	0xbdade30e	-0.08490573
33	0xbc2337ca	-0.009962032
34	0x3dc56fae	0.09640442
35	0x3d8c7ecf	0.06860124
36	0x3d9c4f12	0.07632269
37	0x3d047a5c	0.032343253
38	0xbc6d1265	-0.014469718
39	0xbd6b9e14	-0.057523802
40	0xbd95703e	-0.07296799
41	0x3e20a39f	0.15687416
42	0x3db3f7a8	0.08787471
43	0x3d7b86af	0.06140774
44	0x3df65e79	0.12029738
45	0xbcad06e0	-0.021121442
46	0x3da56732	0.080763236
47	0x3d6811b6	0.056657515
48	0x3c037ed6	0.0080258455
49	0xbd2abfa8	-0.041686684
50	0xbcb2e51b	-0.021837762
51	0x3d2bb181	0.041917328
52	0x3d729a07	0.059228923
53	0x3db98359	0.09058256
54	0xbd49386b	-0.04912607
55	0xbd2bb8a9	-0.041924153
56	0x3cff8798	0.031192586
57	0xbd9b1f9a	-0.07574387
58	0xbc37cfec	-0.011219006
59	0x3d8d47d8	0.06898469
60	0xbbe8fd95	-0.0071103075
61	0x3c6de576	0.01452004
62	0x3dafd939	0.08586354
63	0xbd61f6e8	-0.05516711
64	0xbcec5a17	-0.028851552
65	0x3c7abd67	0.015303946
66	0x3d4ecd40	0.05048871
67	0x3da1abef	0.07894122
68	0xbcdabef0	-0.026702374
69	0xbb0866ec	-0.00208133
70	0xbc48764c	-0.012235235
71	0xbd8d9183	-0.0691252
72	0x3d4d0908	0.05005744
73	0xbd5496bf	-0.051901575
74	0x3ded88ab	0.11598333
75	0xbd3043cf	-0.043033417
76	0xbc340a65	-0.010988806
77	0x3da3502b	0.07974275
78	0x3d98cd15	0.07460991
79	0x3c6e558d	0.014546764
80	0x3d009f55	0.03140195
81	0xb9bd9b48	-0.00036164583
82	0xbb93ca8e	-0.0045102304
83	0x3df5602a	0.119812325
84	0x3dff6cd5	0.1247193
85	0xbd1eb548	-0.038747102
86	0x3dc45ecd	0.09588394
87	0x3d09cd80	0.033643246
88	0xbd7182e8	-0.058962733
89	0xbcfa20a4	-0.030533142
90	0x3ba8be3b	0.0051496304
91	0xbda0795f	-0.0783565
92	0xbd395e0d	-0.04525571
93	0x3cfd612f	0.03093013
94	0xbdd9b273	-0.106297396
95	0xbdae9533	-0.08524551
96	0x3cb1feca	0.021727938
97	0xbc365d3e	-0.011130629
98	0x3d983a37	0.074329786
99	0x3de04c63	0.109520696
100	0x3dc6b14e	0.09701787
101	0xbd1a3d3e	-0.03765606
102	0x3c835526	0.016031813
103	0xbda0646a	-0.078316525
104	0x3d8d266f	0.06892096
105	0xbda75d81	-0.08172131
106	0x3ddd83bd	0.10816143
107	0x3d6d6b74	0.057963803
108	0xbc9a26aa	-0.018817265
109	0xbb47a2cc	-0.0030462025
110	0x3deac6ac	0.11463675
111	0x3d3fc030	0.046814144
112	0x3e0aec2e	0.13566658
113	0xbd883f33	-0.06652679
114	0xbd96ba43	-0.07359745
115	0xbd94ce91	-0.07265962
116	0xbc5a29a2	-0.01331559
117	0x3d5b7e57	0.053587284
118	0x3dd39d5b	0.103327475
119	0x3d0d854a	0.034550942
120	0xbd9eb8c5	-0.07750086
121	0x3d2a9831	0.041649047
122	0x3cd3052d	0.025759304
123	0x3cc72d7c	0.02431368
124	0x39c87957	0.00038237378
125	0xbd88af30	-0.06674039
126	0xbda8de51	-0.082455285
127	0x3e18430c	0.14869326
128	0x3c573817	0.013135931
129	0xbc28f346	-0.010311907
130	0x3db40efc	0.087919205
131	0xbcf89830	-0.030346006
132	0xbe11b2f2	-0.14228418
133	0xbdb763f7	-0.08954614
134	0xbc12bc65	-0.00895605
135	0x3d95f01e	0.07321189
136	0x3da27ea1	0.07934309
137	0x3a6ab107	0.0008952771
138	0x3d61d849	0.055137906
139	0x3b81e7f1	0.003964417
140	0x3dbe20f7	0.09283631
141	0xbd59ab53	-0.053141903
142	0x3d8547f9	0.06507868
143	0xbc836704	-0.016040333
144	0x3db2a851	0.0872351
145	0xbdfabe1e	-0.12243293
146	0xbcda0d80	-0.026617765
147	0x3d29b9b8	0.04143688
148	0xbd22ae44	-0.039716974
149	0xbae59aef	-0.0017517487
150	0x3ca607f4	0.020267464
151	0x3db0b2f5	0.08627883
152	0x3de830db	0.113374434
153	0xbd7111fc	-0.05885504
154	0x3db4884b	0.08815058
155	0xbcb184fa	-0.021669853
156	0xbd10e4f0	-0.03537458
157	0xbdaecc5c	-0.08535072
158	0x3d9482aa	0.07251485
159	0x3bdc7e86	0.00672895
160	0xbd6dbe12	-0.058042593
161	0x3c417494	0.01180758
162	0x3e03e1cb	0.12879102
163	0x3ce1df9f	0.027572451
164	0x3e0ce048	0.13757432
165	0xbda68219	-0.08130283
166	0x3e1236f6	0.14278778
167	0x3c204369	0.009781697
168	0x3d94472f	0.0724014
169	0x3dbfa8f0	0.09358394
170	0x3d7f1ab9	0.062281344
171	0xbd93514b	-0.0719324
172	0x3cb229f8	0.021748528
173	0x3b9caacf	0.004781104
174	0xbc68c72e	-0.014207644
175	0x3ddae14a	0.10687502
176	0xbd4d4936	-0.050118648
177	0xbd503583	-0.050832283
178	0xbd68b3c2	-0.056812055
179	0x3de47622	0.111553445
180	0x3ddcbb4f	0.10777914
181	0x3d5b276f	0.053504404
182	0xbd4d2f3b	-0.05009387
183	0x3d095193	0.03352506
184	0x3d7c47ec	0.061592028
185	0x3d95a318	0.07306498
186	0x3b3665ab	0.0027831595
187	0x3e0273b4	0.1273945
188	0x3d9c83c2	0.07642318
189	0xbd44ded2	-0.04806406
190	0x3dcccfe4	0.100005895
191	0xbcc39029	-0.023872452
192	0xbdb0b10c	-0.08627519
193	0x3deb0ae4	0.114766866
194	0xbce9aa42	-0.028523568
195	0x3d803109	0.06259353
196	0x3e05bfe3	0.1306148
197	0xbd17c450	-0.037052453
198	0x3df29f7e	0.11846827
199	0x3cac52c4	0.02103556
200	0x3d2888f0	0.04114622
201	0x3d0b8fae	0.03407257
202	0x3bd3992b	0.006457468
203	0xbd0978f5	-0.03356262
204	0xbd87daf3	-0.06633558
205	0x3debe351	0.115179665
206	0x3c857676	0.016291838
207	0x3d8db990	0.06920159
208	0x3d3a25cf	0.045446213
209	0x3c2fb5ff	0.010724544
210	0x3de7e73e	0.11323403
211	0x3da302dc	0.0795953
212	0x3ddc1a4d	0.10747204
213	0xbbf28189	-0.0074006957
214	0x3da7df63	0.081969045
215	0xbda47e29	-0.08031876
216	0x39acccdb	0.00032959026
217	0x3c4dfaa3	0.0125719635
218	0xbd8af450	-0.0678488
219	0xbbf3b3ce	-0.007437206
220	0x3d22c443	0.03973795
221	0x3dbc74ae	0.092019424
222	0xbce71197	-0.02820663
223	0xbd51f813	-0.051261973
224	0xbd56904d	-0.05238371
225	0xbd6470c8	-0.05577162
226	0xba98afd9	-0.0011649086
227	0x3bb3b4b7	0.0054841894
228	0xbcae80b7	-0.02130161
229	0x3c9de338	0.019273385
230	0xbd928446	-0.071541354
231	0xbd89ea88	-0.067341864
232	0x3de790e1	0.1130693
233	0xbd6aa7d3	-0.057288956
234	0x3db5f659	0.08884878
235	0xbd926536	-0.07148211
236	0xbd9921b4	-0.074771315
237	0x3df80a65	0.121113576
238	0xb97fa75a	-0.00024381038
239	0x3d9a65cd	0.07538948
240	0x3e038ef3	0.128475
241	0x3cade58d	0.021227622
242	0xbd447036	-0.047958575
243	0x3d035c93	0.032070708
244	0x3c7d32fc	0.01545405
245	0x3d8c7eaf	0.068601005
246	0x3d24b05f	0.040207263
247	0x3e2ad2d4	0.16681987
248	0x3c6da3ee	0.014504416
249	0x3da61dbe	0.081111416
250	0xbd2a1379	-0.041522477
251	0xbced85e1	-0.028994502
252	0x3ddcace2	0.10775162
253	0xbb36708e	-0.0027838084
254	0x3d2e7b1b	0.04259787
255	0x3cbee745	0.023303637

layer3.bias f4 [2]
0	0x3d2022f9	0.039095853
1	0xbd3d8206	-0.04626658

exp_avg f4 [128, 4]
0	0xb69f3eb6	-4.74587e-06
1	0xb93cacd3	-0.00017993459
2	0xb6f63798	-7.3378433e-06
3	0x396a8373	0.00022364948
4	0x38ea789c	0.00011180455
5	0xb974b6d9	-0.0002333777
6	0xb9d12e72	-0.0003989819
7	0xba190e26	-0.0005838595
8	0xb989c8e2	-0.00026280346
9	0xb9650735	-0.00021841827
10	0x3a25eac7	0.0006329235
11	0x3ac55e46	0.0015058003
12	0xb94296e9	-0.000185575
13	0x3928e156	0.00016105673
14	0x39fc252b	0.00048092878
15	0x3a4547de	0.00075256627
16	0xb69b7016	-4.6324085e-06
17	0xb900a487	-0.00012268322
18	0xb6bbad12	-5.5931823e-06
19	0x3918a2e1	0.00014556527
20	0xb92fc83f	-0.00016763898
21	0xb9b3a4f5	-0.00034264443
22	0x3999aac1	0.00029309656
23	0x3a79cd89	0.00095292233
24	0xb85641c2	-5.1082818e-05
25	0xba4eb466	-0.0007885158
26	0x3887543a	6.45299e-05
27	0x3a979e54	0.0011567571
28	0xb74d63df	-1.2242205e-05
29	0x3864af2b	5.4522574e-05
30	0x38467384	4.731446e-05
31	0x374bf4eb	1.2156767e-05
32	0x385b708a	5.231848e-05
33	0xba0b7841	-0.00053203484
34	0xb923791e	-0.00015590011
35	0x399d2d1b	0.0002997898
36	0xb7b1fc3c	-2.12175e-05
37	0xb9424837	-0.00018528184
38	0xb6f60c9d	-7.3328397e-06
39	0x39328a9d	0.0001702704
40	0x3890149a	6.8702924e-05
41	0xb9c13d23	-0.0003685738
42	0xb90d8d55	-0.00013499458
43	0x39175e53	0.0001443562
44	0x393c3777	0.0001794974
45	0xb9b05ed7	-0.00033639997
46	0xba080656	-0.00051889324
47	0xba1ca4c5	-0.00059754803
48	0x38aab88d	8.140607e-05
49	0xb966ca26	-0.00022009815
50	0xb98ff9d3	-0.0002746122
51	0xb9932c66	-0.00028071104
52	0x3719830c	9.150022e-06
53	0x38f030bd	0.0001145317
54	0x36feacaa	7.5898906e-06
55	0xb8e85b56	-0.00011079635
56	0xb9a3930f	-0.0003119935
57	0xb94212c8	-0.00018508278
58	0x3a463e5a	0.00075623917
59	0x3ae14126	0.0017185553
60	0xb6bedc29	-5.6880713e-06
61	0xb6c1bb32	-5.7736406e-06
62	0x36381601	2.7430945e-06
63	0x36a24874	4.836411e-06
64	0xb87100fe	-5.74598e-05
65	0x38feb00f	0.00012144457
66	0x3936abbb	0.00017420847
67	0x39448e92	0.00018745128
68	0xb65a09cd	-3.2490236e-06
69	0xb93fe5d9	-0.00018300804
70	0xb78889d9	-1.6276654e-05
71	0x3948b306	0.00019140178
72	0xb8db2105	-0.00010448884
73	0xb92fbf0d	-0.00016760472
74	0x397f2506	0.00024332487
75	0x3a30a1ab	0.00067379576
76	0xb9a7d141	-0.00032008628
77	0xb9a819d6	-0.00032062706
78	0x3a3fe2f2	0.0007319889
79	0x3aedefd1	0.0018153136
80	0xb68a5d34	-4.1235708e-06
81	0xb6da02f8	-6.497252e-06
82	0x373cb208	1.1247124e-05
83	0x3840064e	4.578224e-05
84	0xb7324e99	-1.0627927e-05
85	0xb9049807	-0.00012645136
86	0x37932569	1.7541186e-05
87	0x39576544	0.00020541722
88	0x390c0d8c	0.00013356487
89	0xb985967e	-0.00025479862
90	0xb9dc322e	-0.00041999057
91	0xba0887d5	-0.0005208229
92	0xb6d55c6b	-6.3586535e-06
93	0xb9193257	-0.0001460997
94	0xb6d46662	-6.3300113e-06
95	0x3932be38	0.00017046265
96	0x35dd1462	1.6471715e-06
97	0x388cb438	6.7092886e-05
98	0x36ccd341	6.104267e-06
99	0xb88f4d5c	-6.833181e-05
100	0xb669f02d	-3.4859506e-06
101	0x3879f365	5.9592905e-05
102	0x36ff938a	7.616768e-06
103	0xb888f0f9	-6.52987e-05
104	0xb7c01006	-2.2895645e-05
105	0xb992d847	-0.0002800843
106	0xb63557e2	-2.7022256e-06
107	0x39af70d5	0.00033462667
108	0xb90a57d2	-0.00013193421
109	0x396c1756	0.00022515407
110	0x39d7dbb7	0.00041171696
111	0x3a137466	0.00056249497
112	0x369d8951	4.6949503e-06
113	0xb8d5e21d	-0.00010198748
114	0xb71a7c78	-9.208095e-06
115	0x3902e5d4	0.00012483384
116	0xb8d5337f	-0.000101662234
117	0xb89f8b23	-7.607627e-05
118	0x399109d9	0.00027663892
119	0x3a315f98	0.0006766259
120	0x38350b8b	4.3164513e-05
121	0xb9086874	-0.00013008883
122	0xb917212e	-0.00014412843
123	0xb8ef9a7c	-0.00011425183
124	0x383b56ef	4.4665238e-05
125	0x3852f994	5.030034e-05
126	0xb72a10f3	-1.0136736e-05
127	0xb7e1d2c0	-2.6920228e-05
128	0xb916dd67	-0.00014387594
129	0x39aa192d	0.00032443684
130	0x39f3bf9e	0.00046491338
131	0x3a10add0	0.0005519064
132	0xb9509c80	-0.00019894727
133	0xb8b408cb	-8.584707e-05
134	0x3a050440	0.00050741807
135	0x3a922d2a	0.0011152376
136	0x393a7ec5	0.00017785568
137	0xb9de38bd	-0.00042385413
138	0xba1522a4	-0.0005689061
139	0xba23e8c0	-0.0006252639
140	0xb7cc98ef	-2.438991e-05
141	0xb9906ef8	-0.00027548498
142	0x352c5a48	6.420637e-07
143	0x39ad2ded	0.0003303135
144	0x391ea5c6	0.0001512981
145	0xb973ec4f	-0.00023262318
146	0xb9e0e80e	-0.00042897504
147	0xba102ccb	-0.0005499839
148	0xb99033ad	-0.00027504322
149	0xb8a0d0c4	-7.66828e-05
150	0x3a345b6e	0.0006880079
151	0x3abd032d	0.0014420502
152	0xb78b15c7	-1.6580232e-05
153	0xb904d846	-0.00012669069
154	0x36b5944c	5.4114844e-06
155	0x392d5cd7	0.00016533151
156	0x00000000	0.0
157	0x00000000	0.0
158	0x00000000	0.0
159	0x00000000	0.0
160	0x38b5c34c	8.6671294e-05
161	0x3b52a05f	0.0032139046
162	0x397c6507	0.00024070228
163	0xbb755504	-0.0037434706
164	0x3958f061	0.00020688913
165	0xba3fccd4	-0.00073165935
166	0xba5d1443	-0.00084335
167	0xba4c8c84	-0.0007802921
168	0xb99eb6c1	-0.0003027227
169	0xbaa21d1b	-0.0012368293
170	0x3a08174e	0.0005191461
171	0x3b265b00	0.002538383
172	0xb8e5e9da	-0.00010963129
173	0x392dbf02	0.00016569722
174	0x39948f74	0.0002833564
175	0x39b6c767	0.0003486231
176	0xb6c6d791	-5.925955e-06
177	0xb8ad6867	-8.268729e-05
178	0x370b8c45	8.317705e-06
179	0x391402ff	0.00014115496
180	0x38f16dce	0.00011512228
181	0xb9169955	-0.00014362235
182	0xb9b1a015	-0.0003387934
183	0xba138fa6	-0.000562901
184	0xb9615dec	-0.00021492661
185	0xb9257781	-0.00015780145
186	0x3a255c4f	0.00063080055
187	0x3ac09d9e	0.0014695411
188	0xb90f9a40	-0.00013695005
189	0x390bc5c4	0.00013329746
190	0x39ae0d48	0.00033197762
191	0x39e23f33	0.00043153166
192	0x378b6f7b	1.6622003e-05
193	0x3926ff73	0.00015926156
194	0x381b86d2	3.708044e-05
195	0xb83e2597	-4.533454e-05
196	0x36d6e4ac	6.404318e-06
197	0x37d67f87	2.5570173e-05
198	0x37151df4	8.888066e-06
199	0x35aa3c6e	1.2683574e-06
200	0xb6be2553	-5.6667864e-06
201	0xb9a0fd6a	-0.00030706386
202	0xb7ba2b8b	-2.2193204e-05
203	0x39b59e01	0.00034640732
204	0xb9536300	-0.00020159408
205	0xb9ae19f5	-0.00033207206
206	0x39f05e16	0.00045846467
207	0x3ab0b465	0.0013481496
208	0x2e31c106	4.041658e-11
209	0x2fdda442	4.0316378e-10
210	0xae58ede0	-4.932399e-11
211	0xb0275313	-6.08723e-10
212	0xb94733be	-0.00018997394
213	0xb946d3f9	-0.00018961717
214	0x39ed0b91	0.0004521278
215	0x3a92d455	0.0011202196
216	0x37a99958	2.0217776e-05
217	0xb96acb96	-0.0002239182
218	0xb7721eb0	-1.4431469e-05
219	0x399edb3e	0.00030299457
220	0xb7e790fc	-2.760486e-05
221	0xb9e7d165	-0.00044215765
222	0xb82d0636	-4.12522e-05
223	0x39da2fe9	0.00041615896
224	0xb8e1f825	-0.000107750566
225	0x3afdf850	0.0019376371
226	0x3a0172c0	0.00049380586
227	0xbad5a009	-0.0016298305
228	0xb9407998	-0.00018355844
229	0x393648bd	0.0001738397
230	0x39ea5e73	0.00044702328
231	0x3a24028e	0.0006256484
232	0xb83c781a	-4.4934546e-05
233	0xb9d0fc51	-0.00039860842
234	0x382e0ca4	4.1496605e-05
235	0x3a1c72ef	0.0005968054
236	0xb9098260	-0.00013113907
237	0x392d8e7e	0.00016551648
238	0x39d7a08d	0.00041127615
239	0x3a2c3051	0.0006568479
240	0xb72ade7a	-1.0184589e-05
241	0xb9281645	-0.00016030025
242	0xb70f2de1	-8.534146e-06
243	0x3936dd09	0.00017439215
244	0x00000000	0.0
245	0x00000000	0.0
246	0x00000000	0.0
247	0x00000000	0.0
248	0xb93c89ef	-0.00017980461
249	0x39b742f8	0.00034954376
250	0x3a0431b6	0.0005042808
251	0x3a17bf53	0.00057887024
252	0xb9c72a13	-0.00037987586
253	0xb98b82b2	-0.00026609522
254	0x3a72a515	0.00092561665
255	0x3b0ba946	0.0021310612

exp_avg_sq f4 [128, 4]
0	0x31a4f492	4.8008326e-09
1	0x33a89df3	7.8518404e-08
2	0x308208e9	9.461277e-10
3	0x33f9932b	1.1621736e-07
4	0x32b92c1c	2.1556893e-08
5	0x356afa61	8.753614e-07
6	0x33275b09	3.8965513e-08
7	0x361b47ed	2.3138666e-06
8	0x33d95885	1.01209515e-07
9	0x3689ae26	4.1031917e-06
10	0x33ec2c52	1.0997668e-07
11	0x371cd1ea	9.347199e-06
12	0x33987257	7.09885e-08
13	0x3617ec8b	2.263844e-06
14	0x33dd93eb	1.03180206e-07
15	0x36c6036a	5.9012573e-06
16	0x31f8aae2	7.237177e-09
17	0x34055b46	1.2419795e-07
18	0x308e6d3a	1.0362904e-09
19	0x34268eeb	1.5511948e-07
20	0x32fac538	2.9193515e-08
21	0x356c97d2	8.813778e-07
22	0x335c9829	5.136113e-08
23	0x3623b6cc	2.4395295e-06
24	0x33ab5dd6	7.979877e-08
25	0x358e68a1	1.0610275e-06
26	0x34039a4b	1.2256457e-07
27	0x35ff4c0a	1.9021111e-06
28	0x31a8957d	4.9064384e-09
29	0x342a428b	1.5856692e-07
30	0x31bb1aec	5.445477e-09
31	0x34db6ea4	4.087243e-07
32	0x33d8488e	1.00714814e-07
33	0x35426501	7.241761e-07
34	0x32d88239	2.5204928e-08
35	0x358a6c2f	1.0313287e-06
36	0x31408908	2.801757e-09
37	0x341ccac6	1.4602401e-07
38	0x31ffd464	7.445623e-09
39	0x34164ee0	1.3998533e-07
40	0x33857b00	6.215669e-08
41	0x351aab16	5.7618433e-07
42	0x32cb52f7	2.3670038e-08
43	0x35827756	9.720486e-07
44	0x33746e53	5.6911016e-08
45	0x3620e02e	2.3972348e-06
46	0x33b93703	8.6247404e-08
47	0x36cd9239	6.1264986e-06
48	0x328fec7b	1.675493e-08
49	0x351f0845	5.924415e-07
50	0x32cd6e0c	2.3915184e-08
51	0x35d3b876	1.577441e-06
52	0x2f951286	2.7116104e-10
53	0x3281104e	1.5024991e-08
54	0x2fafb920	3.1963854e-10
55	0x330e1c6a	3.3087794e-08
56	0x34656309	2.1363316e-07
57	0x36df821b	6.661064e-06
58	0x349e0736	2.943504e-07
59	0x379006b4	1.7169259e-05
60	0x31a51635	4.8046567e-09
61	0x334462bf	4.5724615e-08
62	0x303c0979	6.8407463e-10
63	0x33480fe3	4.6580578e-08
64	0x32c1645b	2.2513793e-08
65	0x355502b2	7.9352606e-07
66	0x33376ed8	4.270882e-08
67	0x362607f1	2.474055e-06
68	0x32920018	1.699668e-08
69	0x34896afc	2.559608e-07
70	0x31356eb8	2.6401903e-09
71	0x34a80e4d	3.1302844e-07
72	0x330533bc	3.1013528e-08
73	0x356ff5c7	8.939209e-07
74	0x332f9196	4.0877772e-08
75	0x35f2c59d	1.8087918e-06
76	0x346c8f8f	2.2031439e-07
77	0x36ddbfea	6.608655e-06
78	0x34f8fe42	4.6378597e-07
79	0x37acfbdc	2.0621279e-05
80	0x311b234c	2.2575533e-09
81	0x33449f6f	4.577981e-08
82	0x305efd06	8.11227e-10
83	0x33b44dda	8.396064e-08
84	0x2ef823fe	1.1284128e-10
85	0x3268b193	1.3544553e-08
86	0x2f66a2da	2.0976235e-10
87	0x330a34d1	3.2178665e-08
88	0x333eca0d	4.4421586e-08
89	0x36042fb5	1.9697302e-06
90	0x335fe87c	5.2132677e-08
91	0x36a20e88	4.829668e-06
92	0x323f0bb2	1.1120322e-08
93	0x343b9c4a	1.747259e-07
94	0x2fc981d5	3.6653938e-10
95	0x340ed4ba	1.330217e-07
96	0x30a372d2	1.1892445e-09
97	0x32a916bf	1.9684533e-08
98	0x2f89578f	2.498237e-10
99	0x32d3bc17	2.4649166e-08
100	0x30d34197	1.5370912e-09
101	0x32ae1cc7	2.0269352e-08
102	0x2fb64de9	3.3160966e-10
103	0x32fd866e	2.9514208e-08
104	0x3260be9d	1.30818565e-08
105	0x34a54fe8	3.0791784e-07
106	0x313a0abe	2.7072669e-09
107	0x350845a0	5.0765266e-07
108	0x33915a4a	6.768512e-08
109	0x360ef736	2.1303545e-06
110	0x33c58a76	9.198713e-08
111	0x36bc61d6	5.614226e-06
112	0x319c6c29	4.552494e-09
113	0x33a7f178	7.8204664e-08
114	0x304303e5	7.094612e-10
115	0x33b3aa1f	8.366282e-08
116	0x32ddf501	2.5839201e-08
117	0x35635f92	8.4703163e-07
118	0x33889592	6.3602e-08
119	0x363b9af0	2.7955357e-06
120	0x31a62480	4.8353854e-09
121	0x34df59e2	4.1602385e-07
122	0x32275585	9.740124e-09
123	0x358ae56d	1.0348573e-06
124	0x325be8af	1.2800384e-08
125	0x3303119e	3.0516837e-08
126	0x3059f322	7.928965e-10
127	0x33192cdd	3.566389e-08
128	0x33aca42c	8.039237e-08
129	0x363e8b20	2.8393188e-06
130	0x3405927a	1.2439878e-07
131	0x36fd2435	7.5442026e-06
132	0x33d0c0e7	9.7208435e-08
133	0x3650381f	3.1027082e-06
134	0x33e95f51	1.0867246e-07
135	0x3700f34e	7.686043e-06
136	0x3387720d	6.307173e-08
137	0x3630335c	2.6255939e-06
138	0x33c20222	9.034217e-08
139	0x36dd92d2	6.6034054e-06
140	0x3283a7e6	1.5326759e-08
141	0x3408e3ed	1.2748906e-07
142	0x31adbe5e	5.056605e-09
143	0x33f991cd	1.1621487e-07
144	0x331f64ef	3.711187e-08
145	0x35b5f62c	1.3557196e-06
146	0x334d05d4	4.7735583e-08
147	0x3660c1ed	3.349148e-06
148	0x341cae58	1.4592058e-07
149	0x36a535bf	4.92364e-06
150	0x34382f86	1.7153624e-07
151	0x374e2f9a	1.228964e-05
152	0x31ad323e	5.0406745e-09
153	0x34536bf1	1.9690175e-07
154	0x3056db54	7.816443e-10
155	0x3490fe49	2.7007107e-07
156	0x00000000	0.0
157	0x00000000	0.0
158	0x00000000	0.0
159	0x00000000	0.0
160	0x3419b63b	1.431553e-07
161	0x36d9b10d	6.4877154e-06
162	0x3404fe9a	1.2386081e-07
163	0x376a8ccf	1.3980271e-05
164	0x344033bc	1.7900214e-07
165	0x370180db	7.719001e-06
166	0x3495132c	2.7767362e-07
167	0x37a6168a	1.9799238e-05
168	0x33d1dcd3	9.7724886e-08
169	0x35fe971b	1.8968452e-06
170	0x33ffb81e	1.19078535e-07
171	0x36a0b3a8	4.7892863e-06
172	0x3279de7c	1.4544295e-08
173	0x35667abf	8.5860296e-07
174	0x3319d965	3.5820808e-08
175	0x36237b65	2.4360718e-06
176	0x307818f2	9.0257324e-10
177	0x32ef7fb9	2.7881343e-08
178	0x2f8254a6	2.3707009e-10
179	0x334b0c40	4.7275762e-08
180	0x3304c941	3.0916684e-08
181	0x359a4a09	1.1495441e-06
182	0x333d05ad	4.4010154e-08
183	0x3650e32b	3.1126644e-06
184	0x33a07fb0	7.473807e-08
185	0x36ad5b6d	5.166445e-06
186	0x3406229b	1.2492312e-07
187	0x37431972	1.162883e-05
188	0x33bf1308	8.897592e-08
189	0x36202e7e	2.386892e-06
190	0x34369c88	1.7007017e-07
191	0x3703f8d3	7.866142e-06
192	0x3189a026	4.0054315e-09
193	0x348ad408	2.5858776e-07
194	0x31cfc1ba	6.046517e-09
195	0x35334fb2	6.679867e-07
196	0x2fbe9004	3.4663128e-10
197	0x331cfe04	3.6552606e-08
198	0x301019da	5.242363e-10
199	0x33b367ca	8.354216e-08
200	0x32a1fcc7	1.8857817e-08
201	0x34a40f56	3.055854e-07
202	0x315dc235	3.2270127e-09
203	0x34e0ba06	4.18586e-07
204	0x3394efc8	6.935403e-08
205	0x360aad00	2.0664302e-06
206	0x33bfc6e5	8.930309e-08
207	0x36b70201	5.4540583e-06
208	0x2e31778d	4.0351323e-11
209	0x3189f598	4.0151455e-09
210	0x2e8427c3	6.009728e-11
211	0x321d409a	9.1532915e-09
212	0x33a25af3	7.5602564e-08
213	0x361eaa6d	2.3643036e-06
214	0x33dd649b	1.03094145e-07
215	0x36d18eef	6.245325e-06
216	0x32fdc13c	2.954095e-08
217	0x342d7d86	1.6157546e-07
218	0x3158d928	3.1555576e-09
219	0x3489af56	2.5645812e-07
220	0x33140eb3	3.4472304e-08
221	0x3580f3c4	9.607688e-07
222	0x320a0e1d	8.035866e-09
223	0x3547a2b4	7.437004e-07
224	0x34705c4b	2.2385318e-07
225	0x36fef92a	7.5987964e-06
226	0x34933d03	2.7425276e-07
227	0x379359a2	1.7565504e-05
228	0x33a1384f	7.507389e-08
229	0x361e8fb8	2.362749e-06
230	0x34125ff3	1.3632216e-07
231	0x36df6293	6.6573934e-06
232	0x3246621a	1.1547423e-08
233	0x34560564	1.9932264e-07
234	0x3355a5ed	4.9743836e-08
235	0x35133383	5.4836727e-07
236	0x33551d5c	4.961963e-08
237	0x35e60845	1.7138742e-06
238	0x339b9a38	7.245802e-08
239	0x369543bb	4.448431e-06
240	0x3115a931	2.1778528e-09
241	0x3327a2e6	3.9030873e-08
242	0x3001a675	4.7166476e-10
243	0x33522f99	4.8937725e-08
244	0x00000000	0.0
245	0x00000000	0.0
246	0x00000000	0.0
247	0x00000000	0.0
248	0x33bc8fa1	8.780558e-08
249	0x364c1ef2	3.0416381e-06
250	0x33db8fc8	1.0224136e-07
251	0x36f53558	7.307779e-06
252	0x34c74fe7	3.7124775e-07
253	0x3737b992	1.0950856e-05
254	0x35286fac	6.274738e-07
255	0x3802df30	3.1202275e-05

max_exp_avg_sq f4 [128, 4]
0	0x31a652b7	4.8406394e-09
1	0x33c5fa16	9.219018e-08
2	0x30827b77	9.493836e-10
3	0x33fe1051	1.18307646e-07
4	0x32b95609	2.1575959e-08
5	0x356b2b10	8.7606986e-07
6	0x33275b09	3.8965513e-08
7	0x361b6fa7	2.316179e-06
8	0x33d97003	1.0125225e-07
9	0x3689cfaf	4.1070957e-06
10	0x33ec2c52	1.0997668e-07
11	0x371cf3fc	9.355132e-06
12	0x3398acd3	7.109488e-08
13	0x361810c5	2.2659526e-06
14	0x33ddb760	1.032447e-07
15	0x36c63619	5.9071576e-06
16	0x321c9c15	9.115884e-09
17	0x344135ed	1.7994144e-07
18	0x308f2bd0	1.0417072e-09
19	0x34624c0e	2.1075559e-07
20	0x32fac538	2.9193515e-08
21	0x356ccd39	8.821549e-07
22	0x335cdd25	5.142387e-08
23	0x3623dcff	2.441753e-06
24	0x33abc482	7.9985526e-08
25	0x358e68a1	1.0610275e-06
26	0x3411c433	1.3575554e-07
27	0x35ff4c0a	1.9021111e-06
28	0x31a9b938	4.9396043e-09
29	0x342a6cba	1.5872038e-07
30	0x31c19df9	5.6349987e-09
31	0x34dbc0d8	4.093224e-07
32	0x33d92dd4	1.0113186e-07
33	0x35426501	7.241761e-07
34	0x32d91f80	2.527645e-08
35	0x358a82b1	1.0319837e-06
36	0x316595d0	3.3409044e-09
37	0x34332dd7	1.668735e-07
38	0x321705eb	8.790702e-09
39	0x34166ba4	1.4008998e-07
40	0x3385d5a4	6.232156e-08
41	0x351ada03	5.768672e-07
42	0x32cb5e7b	2.3675275e-08
43	0x358292e5	9.728507e-07
44	0x3374982d	5.694908e-08
45	0x36210395	2.3992955e-06
46	0x33b93703	8.6247404e-08
47	0x36cdc6e3	6.1326296e-06
48	0x32900ce5	1.676967e-08
49	0x351f1da1	5.927523e-07
50	0x32cd6e0c	2.3915184e-08
51	0x35d3e994	1.5788705e-06
52	0x2f9521ce	2.7126962e-10
53	0x3281104e	1.5024991e-08
54	0x2fb03ff5	3.2059658e-10
55	0x330e1c6a	3.3087794e-08
56	0x3465c4d2	2.139889e-07
57	0x36dfb78a	6.6672847e-06
58	0x349e1766	2.9446818e-07
59	0x3790252c	1.7183447e-05
60	0x3210885e	8.4129095e-09
61	0x33b5441c	8.440858e-08
62	0x309e63a8	1.1524337e-09
63	0x33b90031	8.6147686e-08
64	0x32c227d9	2.2602693e-08
65	0x3555374c	7.942915e-07
66	0x3347020f	4.633517e-08
67	0x36263255	2.4765225e-06
68	0x32d9815b	2.5320949e-08
69	0x34d28df3	3.921883e-07
70	0x31365e94	2.6538247e-09
71	0x34e5ee99	4.2828177e-07
72	0x33055745	3.1045847e-08
73	0x35702b92	8.947037e-07
74	0x332fba6a	4.0914905e-08
75	0x35f2f666	1.8102116e-06
76	0x346cdff1	2.2060682e-07
77	0x36ddf48a	6.6147813e-06
78	0x34f94788	4.643191e-07
79	0x37ad2289	2.0639289e-05
80	0x31629e49	3.2977303e-09
81	0x33456490	4.5959098e-08
82	0x306001f1	8.1493484e-10
83	0x33b50afd	8.430468e-08
84	0x2ef8fa2d	1.13221744e-10
85	0x32698146	1.3591778e-08
86	0x2f678415	2.1056253e-10
87	0x330ab44d	3.229461e-08
88	0x333ef40c	4.445978e-08
89	0x36045193	1.9717015e-06
90	0x335fe87c	5.2132677e-08
91	0x36a2306d	4.8336137e-06
92	0x32a86227	1.9602409e-08
93	0x34a5c2fb	3.0875512e-07
94	0x2fca0f0f	3.6754286e-10
95	0x3458e19c	2.0198644e-07
96	0x30f54597	1.7845875e-09
97	0x32d47fe9	2.4738215e-08
98	0x2f89d5fb	2.5072197e-10
99	0x32d40570	2.4682521e-08
100	0x30d43eb2	1.5442849e-09
101	0x32b96c58	2.1586104e-08
102	0x2fb6ebe2	3.3273212e-10
103	0x32fdaa0b	2.9530403e-08
104	0x32979356	1.7645714e-08
105	0x34dad3ea	4.0759852e-07
106	0x313a999e	2.7153884e-09
107	0x352069d5	5.975865e-07
108	0x33919c94	6.78057e-08
109	0x360f1b3e	2.1324518e-06
110	0x33c5b736	9.206853e-08
111	0x36bc920e	5.6198396e-06
112	0x31a925ba	4.9228364e-09
113	0x3403d169	1.2276509e-07
114	0x3043d380	7.1241146e-10
115	0x340252c7	1.2137308e-07
116	0x32de61de	2.5888706e-08
117	0x35639448	8.477987e-07
118	0x338ccf11	6.556923e-08
119	0x363bc393	2.797901e-06
120	0x31a63ac1	4.8379154e-09
121	0x34df92dd	4.1643844e-07
122	0x32275585	9.740124e-09
123	0x358b08b3	1.0358839e-06
124	0x325e7fe7	1.2951182e-08
125	0x33049007	3.0864637e-08
126	0x30609acd	8.171071e-10
127	0x332192d7	3.7619284e-08
128	0x33acef2a	8.052878e-08
129	0x363eb4d1	2.8417455e-06
130	0x3405ad95	1.2449739e-07
131	0x36fd6482	7.551688e-06
132	0x33d10f4f	9.7351055e-08
133	0x36506ba6	3.1057075e-06
134	0x33e96532	1.0868315e-07
135	0x3701103f	7.692782e-06
136	0x3387852f	6.310653e-08
137	0x36305b93	2.6279347e-06
138	0x33c20222	9.034217e-08
139	0x36ddcb0d	6.6099515e-06
140	0x32d6848c	2.4973154e-08
141	0x343501cb	1.6857591e-07
142	0x31ae029e	5.064364e-09
143	0x33f991cd	1.1621487e-07
144	0x331f84f4	3.7140993e-08
145	0x35b620ee	1.356964e-06
146	0x334d05d4	4.7735583e-08
147	0x3660fa5a	3.3524325e-06
148	0x341cd356	1.4605516e-07
149	0x36a55e77	4.9283803e-06
150	0x34382f86	1.7153624e-07
151	0x374e5cc3	1.2300155e-05
152	0x3203d7d7	7.67428e-09
153	0x3494a618	2.7687997e-07
154	0x305782de	7.840252e-10
155	0x34b3ff2c	3.352701e-07
156	0x00000000	0.0
157	0x00000000	0.0
158	0x00000000	0.0
159	0x00000000	0.0
160	0x3419d562	1.4326864e-07
161	0x36d9be0d	6.489229e-06
162	0x340513d1	1.23938e-07
163	0x376aadcf	1.3987955e-05
164	0x34405dca	1.7915514e-07
165	0x37019abe	7.725028e-06
166	0x3495132c	2.7767362e-07
167	0x37a63ffe	1.981854e-05
168	0x33d1eaeb	9.775052e-08
169	0x35fe971b	1.8968452e-06
170	0x33ffb81e	1.19078535e-07
171	0x36a0b3a8	4.7892863e-06
172	0x327a42be	1.4567091e-08
173	0x3566b3ef	8.5943515e-07
174	0x3319eb90	3.583733e-08
175	0x3623a52a	2.438503e-06
176	0x309b44f2	1.129733e-09
177	0x3308dd57	3.1866275e-08
178	0x2f82992d	2.37557e-10
179	0x334b624a	4.7354014e-08
180	0x3305210b	3.0996528e-08
181	0x359a717e	1.1506925e-06
182	0x333d05ad	4.4010154e-08
183	0x36511177	3.1153593e-06
184	0x33a08785	7.4752315e-08
185	0x36ad8660	5.171445e-06
186	0x3406229b	1.2492312e-07
187	0x3743460d	1.1639216e-05
188	0x33bfb128	8.926355e-08
189	0x36205589	2.3891646e-06
190	0x3436e9e6	1.7035163e-07
191	0x37041a64	7.873958e-06
192	0x3189d94a	4.0119277e-09
193	0x348adc6b	2.5864878e-07
194	0x31d03ec2	6.0607315e-09
195	0x35336239	6.682563e-07
196	0x2fbebfdd	3.4697126e-10
197	0x331d1747	3.657558e-08
198	0x30103829	5.2466703e-10
199	0x33b38557	8.3595914e-08
200	0x32d3058b	2.4566154e-08
201	0x34e72055	4.3050628e-07
202	0x315eadf9	3.2404144e-09
203	0x350fd81b	5.3586126e-07
204	0x33953651	6.948233e-08
205	0x360acf51	2.0684276e-06
206	0x33bfdb05	8.93397e-08
207	0x36b72b0b	5.458836e-06
208	0x2e481af0	4.549866e-11
209	0x319b8ed2	4.5273305e-09
210	0x2e95036f	6.7763455e-11
211	0x32314fd7	1.03209095e-08
212	0x33a2826f	7.5674386e-08
213	0x361ecfc6	2.3664775e-06
214	0x33dd8037	1.03144366e-07
215	0x36d1bbe1	6.2505574e-06
216	0x3300205f	2.9831764e-08
217	0x342d902f	1.6164334e-07
218	0x3159b71a	3.1681737e-09
219	0x3489af56	2.5645812e-07
220	0x334bdfda	4.7468212e-08
221	0x35c2fd34	1.4527818e-06
222	0x320abc9d	8.075543e-09
223	0x3579a722	9.300294e-07
224	0x34708cb9	2.2402936e-07
225	0x36ff3802	7.6061124e-06
226	0x34933d03	2.7425276e-07
227	0x37937a4c	1.7580714e-05
228	0x33a17b41	7.5195665e-08
229	0x361eb63d	2.3649911e-06
230	0x34128c68	1.3648389e-07
231	0x36df9b8c	6.664026e-06
232	0x3246863a	1.15556364e-08
233	0x34560564	1.9932264e-07
234	0x33a6c22e	7.7652984e-08
235	0x35133383	5.4836727e-07
236	0x33556844	4.9687756e-08
237	0x35e64283	1.7155693e-06
238	0x339ba68e	7.248046e-08
239	0x3695697b	4.4528256e-06
240	0x31162cd7	2.1853361e-09
241	0x3327a2e6	3.9030873e-08
242	0x30020fd6	4.731623e-10
243	0x33522f99	4.8937725e-08
244	0x00000000	0.0
245	0x00000000	0.0
246	0x00000000	0.0
247	0x00000000	0.0
248	0x33bd30fb	8.809908e-08
249	0x364c4fe0	3.0444862e-06
250	0x33dbaac1	1.0229042e-07
251	0x36f57401	7.3150736e-06
252	0x34c78ee2	3.71706e-07
253	0x3737e6f9	1.09614275e-05
254	0x35289414	6.280036e-07
255	0x3802fd79	3.123048e-05
